_________________________________________________________________
Layer (type)                 Output Shape              Param #   
=================================================================
conv1d_1 (Conv1D)            (None, 489, 8)            80        
_________________________________________________________________
max_pooling1d_1 (MaxPooling1 (None, 122, 8)            0         
_________________________________________________________________
conv1d_2 (Conv1D)            (None, 116, 16)           912       
_________________________________________________________________
max_pooling1d_2 (MaxPooling1 (None, 29, 16)            0         
_________________________________________________________________
conv1d_3 (Conv1D)            (None, 25, 24)            1944      
_________________________________________________________________
max_pooling1d_3 (MaxPooling1 (None, 6, 24)             0         
_________________________________________________________________
conv1d_4 (Conv1D)            (None, 4, 32)             2336      
_________________________________________________________________
max_pooling1d_4 (MaxPooling1 (None, 2, 32)             0         
_________________________________________________________________
flatten_1 (Flatten)          (None, 64)                0         
_________________________________________________________________
dropout_1 (Dropout)          (None, 64)                0         
_________________________________________________________________
dense_1 (Dense)              (None, 64)                4160      
_________________________________________________________________
dense_2 (Dense)              (None, 1)                 65        
=================================================================
Total params: 9,497
Trainable params: 9,497
Non-trainable params: 0
_________________________________________________________________
======
MSE = 0.06531123863
======
True:
[-1.13907506 -1.28190579 -1.10336738 -1.17478275 -0.10355228 -0.03213691
 -0.10355228  1.1462166   1.36046269  1.36046269]
Predict:
[-1.15144992 -1.15508091 -1.1597122  -1.29082572 -0.01409975  0.00712473
…
